data.pth (torch, 4991 bytes, 6 tensors)

l1.weight f4 [8, 54]
0	0x3ed5c955	0.41755167
1	0x3ec04184	0.37549984
2	0xbf01cd92	-0.507043
3	0xbe206585	-0.15663727
4	0x3e0511f7	0.12995134
5	0xbe708482	-0.23488048
6	0xbe24bcb4	-0.1608761
7	0xbeef5b24	-0.46749222
8	0xbebde898	-0.37091517
9	0xbe5ca607	-0.2154771
10	0x3d0bf481	0.034168724
11	0xbd558269	-0.052126322
12	0x3ece8fc3	0.40344056
13	0xbe308dec	-0.17241639
14	0x3e5f1c48	0.21788132
15	0xbe9ccfe5	-0.3062736
16	0xbb7141f5	-0.0036812995
17	0xbe6f623e	-0.2337732
18	0x3ef188cf	0.4717469
19	0xbd4bf661	-0.049795512
20	0x3e8275a0	0.25480366
21	0x3d4d3dfb	0.050107937
22	0xbc8b36ed	-0.016993964
23	0xbe008bdf	-0.12553357
24	0xbe9b888a	-0.3037761
25	0xbe80bb3a	-0.25142843
26	0x3f510ffd	0.8166502
27	0x3e16041d	0.14650007
28	0x3ede6d41	0.4344273
29	0xbe57386e	-0.2101762
30	0xbe8aff21	-0.27147773
31	0xbd7cecbb	-0.0617492
32	0x3eb0cc98	0.34531093
33	0xbeb7d295	-0.3590285
34	0x3d34aaf3	0.044108342
35	0xbe698740	-0.228055
36	0x3f19ac87	0.6002888
37	0xbf04b12d	-0.5183285
38	0xb870a90f	-5.7377907e-05
39	0xbdbc90bf	-0.092072956
40	0xbe887c5d	-0.26657382
41	0x3f534fea	0.82543814
42	0x3c530440	0.012879431
43	0x3e3d4298	0.18482435
44	0xbe95e32e	-0.29274887
45	0x3e346cb4	0.17619592
46	0x3f49fe16	0.7890333
47	0x3e30e980	0.17276573
48	0x3f0d1f08	0.55125475
49	0x3f422c34	0.758487
50	0xbe1984d0	-0.1499207
51	0x3f0ca5ed	0.5494068
52	0xbdb50063	-0.088379644
53	0x3e9df855	0.30853525
54	0x3ee237f2	0.44183308
55	0xbe9d2753	-0.30694064
56	0x3ce083e9	0.02740665
57	0x3d4c207d	0.04983567
58	0x3e6b3e45	0.22972973
59	0x3f856d1e	1.0423925
60	0x3e3c7ace	0.18406221
61	0x3e4a4470	0.1975267
62	0x3e0dd85b	0.13852064
63	0x3dd5416f	0.10412871
64	0x3dec70ee	0.11544977
65	0xbe3736cf	-0.17892002
66	0x3e80d0a5	0.25159183
67	0xbe7a9607	-0.24471293
68	0xbe944810	-0.2896123
69	0xbec5f53c	-0.3866366
70	0x3e801037	0.2501237
71	0x3f866c25	1.0501753
72	0x3e949280	0.2901802
73	0x3d69963b	0.057028037
74	0x3eab42d7	0.33449432
75	0x3dbeb261	0.09311367
76	0x3c89b5ee	0.016810384
77	0xbe9a4e68	-0.30137944
78	0xbe876319	-0.26442793
79	0x3d3a01d5	0.045411903
80	0x3ec7a17d	0.38990393
81	0xbea2e424	-0.31814682
82	0x3e96875f	0.29400155
83	0xbefe9140	-0.49720192
84	0x3f41c064	0.7568419
85	0xbe5fab93	-0.21842794
86	0x3eb341e8	0.3501122
87	0xbd55ad2b	-0.0521671
88	0xbe419f52	-0.18908432
89	0xbe1bcfd6	-0.15216002
90	0x3ea8c332	0.32961422
91	0x3e5585b9	0.20851792
92	0x3e504df4	0.20342237
93	0x3ea3fbf6	0.32028168
94	0x3f298233	0.66214293
95	0x3e789835	0.24276812
96	0xbe545669	-0.20736088
97	0xbe47e6d6	-0.1952165
98	0xbe06f78d	-0.1318037
99	0xbe9d94db	-0.3077763
100	0x3f016074	0.505378
101	0x3ea6beed	0.3256754
102	0x3ec85071	0.39123872
103	0x3f108c14	0.5646374
104	0xbebea14f	-0.37232444
105	0x3ed62360	0.41823864
106	0x3eb0dc00	0.34542847
107	0x3f0f4ccc	0.5597656
108	0x3e92a90e	0.28644603
109	0x3ec877c5	0.39153877
110	0x3ee840b8	0.45361876
111	0xbe9d05a6	-0.30668372
112	0x3dade6db	0.08491298
113	0xbe9caf59	-0.3060253
114	0x3eb01c74	0.34396708
115	0x3efeae0d	0.49742165
116	0x3f18eb39	0.5973392
117	0x3ee774b8	0.45206237
118	0xbe3c58c4	-0.18393236
119	0xbead8109	-0.3388751
120	0x3f1976f8	0.59947157
121	0xbcc699b0	-0.024243206
122	0x3ec924e2	0.39285952
123	0xbe6218b7	-0.2207974
124	0xbdfa1cd8	-0.12212533
125	0xbe9c84fa	-0.30570203
126	0x3edefe0b	0.43553194
127	0xbe9caa9a	-0.3059891
128	0x3ebdbed7	0.37059662
129	0xbe9cc821	-0.30621436
130	0xbe9c7191	-0.30555394
131	0xbf0503f7	-0.51959175
132	0x3ea23eb6	0.3168847
133	0xbe7c2e25	-0.24626978
134	0x3ec9f7e7	0.39446947
135	0x3ef5456a	0.4790452
136	0x3eb4b79e	0.3529634
137	0x3ec3461e	0.38139433
138	0xbee22c05	-0.4417421
139	0xbca3e704	-0.020007618
140	0x3dfe195f	0.12407183
141	0x3f1347c6	0.5753139
142	0x3e811b60	0.25216198
143	0xbe6b8653	-0.2300046
144	0x3efe30dc	0.49646652
145	0x3f1a962d	0.603854
146	0x3f0b285c	0.5435846
147	0x3f0959bb	0.5365254
148	0xbebc225b	-0.3674496
149	0x3ec85014	0.39123595
150	0xbe215475	-0.15754874
151	0x3ee43750	0.4457345
152	0x3eb6f0e5	0.35730663
153	0x3e80644f	0.2507653
154	0x3f1c1158	0.60963964
155	0x3e9d5d85	0.30735412
156	0x3e7d6ee0	0.24749327
157	0x3eb756c9	0.358084
158	0xbeb58eba	-0.35460454
159	0x3e3e7609	0.18599714
160	0x3eaa570b	0.33269534
161	0x3f019d5a	0.50630724
162	0xbe1aca83	-0.15116315
163	0xbe975c5c	-0.29562652
164	0x3e91df73	0.2849079
165	0x3eac0527	0.3359768
166	0x3eccec2d	0.40023938
167	0xbca59f29	-0.020217495
168	0x3e2b5dfc	0.16735071
169	0x3db8185e	0.08989023
170	0x3e592b37	0.21207891
171	0x3e98eb1d	0.29866877
172	0x3ecec487	0.40384313
173	0x3f092d20	0.5358448
174	0x3ed4091a	0.41413194
175	0x3f134743	0.5753061
176	0xbe945e4d	-0.28978196
177	0x3efca0f4	0.49341547
178	0x3edd4c5b	0.43222317
179	0xbc8632b4	-0.016381599
180	0x3ec697b4	0.38787615
181	0x3f201cdb	0.6254403
182	0xbe62dd03	-0.22154622
183	0x3f0d634e	0.5522965
184	0x3f186d2a	0.5954157
185	0x3f43ecd0	0.7653322
186	0x3ee52bd5	0.44760004
187	0x3e59411a	0.2121624
188	0x3ee38e37	0.4444444
189	0xbe97f3c9	-0.2967818
190	0x3e75dc92	0.24009922
191	0xbec64641	-0.38725474
192	0xbcb73473	-0.022363877
193	0x3ede9844	0.43475544
194	0x3ce11f2b	0.027480682
195	0x3e965c36	0.29367226
196	0xbe5a2dbe	-0.21306512
197	0x3eaea780	0.34112167
198	0x3e752edd	0.23943658
199	0x3eaa72f6	0.33290833
200	0x3eca6829	0.39532593
201	0x3e387ef8	0.18017185
202	0x3d9918c6	0.07475428
203	0x3f08dc8d	0.53461534
204	0x3eadcb61	0.33944228
205	0xbdaa29b2	-0.08308734
206	0x3f237a79	0.63858753
207	0xbe42ba57	-0.19016396
208	0xbf3b8442	-0.73248684
209	0xbe982f20	-0.29723454
210	0x3ef5ddf8	0.4802091
211	0x3ee42ca9	0.44565323
212	0x3f10d4fb	0.5657498
213	0x3ecd1263	0.4005309
214	0x3e8bbcd2	0.27292496
215	0x3d88dd97	0.0668289
216	0xbe222753	-0.15835313
217	0x3e9d2a07	0.30696127
218	0x3ed7ead1	0.42171338
219	0x3ea091d9	0.31361273
220	0x3e9a86f8	0.30181098
221	0xbf08e404	-0.53472924
222	0x3e409774	0.18807775
223	0x3e920311	0.28517964
224	0x3ed9b707	0.4252245
225	0x3e8d47b7	0.27593777
226	0x3e811a48	0.25215364
227	0x3ec93366	0.39297026
228	0x3e673daf	0.22582124
229	0x3ec9101e	0.3927011
230	0x3e62156d	0.22078486
231	0x3e3a3683	0.18184857
232	0x3e8ad511	0.27115682
233	0xbf08a2cb	-0.533734
234	0xbe958717	-0.29204628
235	0x3ec11bac	0.37716424
236	0xbe407efa	-0.18798438
237	0x3f04799b	0.51748055
238	0x3ed10243	0.40822038
239	0x3e4c5cab	0.19957225
240	0x3effab8a	0.4993556
241	0x3dfdabc5	0.12386278
242	0xbec201de	-0.3789205
243	0x3eec28f4	0.46124995
244	0xbd5edfda	-0.0544127
245	0x3ebc3bc2	0.36764342
246	0xbef769bb	-0.48322853
247	0x3f0257f0	0.5091543
248	0xbd8938fa	-0.067003205
249	0x3e9efebb	0.3105372
250	0x3ecf320e	0.40467876
251	0x3ea8a9f9	0.3294218
252	0xbd1f0710	-0.038825095
253	0x3f1a975d	0.6038721
254	0x3e6981af	0.22803377
255	0x3e9672b5	0.2938439

l1.bias f4 [8]
0	0x3f2339a4	0.6375983
1	0x3f8d17ee	1.1022928
2	0x3e9c70e0	0.30554867
3	0x3f46b0a2	0.7761327
4	0x3f089243	0.5334818
5	0x3ec8d1e7	0.39222643
6	0xbdf5d092	-0.12002672
7	0x3f14b305	0.5808566

l2.weight f4 [8, 8]
0	0xbe0f1901	-0.13974382
1	0xbf1a0c0a	-0.6017462
2	0xbfb74124	-1.4316754
3	0x3f72947d	0.94757825
4	0x3f48250c	0.7818153
5	0x3f8b39ad	1.0876976
6	0x3ea15101	0.31507114
7	0x3f9b298f	1.2122058
8	0xbc831fe0	-0.01600641
9	0x3d334dc0	0.04377532
10	0x3e0178b0	0.12643695
11	0xbd037900	-0.032097816
12	0xbdc305e0	-0.09522605
13	0xbe50630a	-0.2035028
14	0x3cce66d0	0.02519551
15	0xbe6a9006	-0.22906503
16	0x3f604246	0.87601125
17	0x3fbe2a1c	1.4856601
18	0xbf6373f1	-0.8884879
19	0x3ea283e1	0.3174124
20	0xbf0001cd	-0.5000275
21	0xbe9d1ebd	-0.30687514
22	0xbe3ba69e	-0.18325278
23	0x3e81e158	0.25367236
24	0x3fbb3a54	1.4627175
25	0x3d014c1b	0.03156672
26	0x3f34cab8	0.70621824
27	0xbf0b4454	-0.54401135
28	0xbecd5014	-0.40100157
29	0x3f32a810	0.69787693
30	0x3e9d768f	0.30754516
31	0x3f6b2ca1	0.91864973
32	0x3f2499e2	0.64297307
33	0x3fc5a4f9	1.5440971
34	0x3eecf802	0.46282965
35	0x3f5406c1	0.82822806
36	0xbf1c7f1a	-0.6113144
37	0xbf1224c9	-0.5708738
38	0xbe471815	-0.1944278
39	0x3d3ac938	0.045602053
40	0x3db43a53	0.08800187
41	0x3cd9b6a7	0.026576353
42	0x3f6b5e63	0.919409
43	0xbe908363	-0.2822524
44	0x3f6e56ac	0.93101
45	0xbed13a06	-0.4086458
46	0x3e648894	0.22317725
47	0x3f8d740e	1.1051042
48	0xbe84f55c	-0.25968444
49	0x3da3f7c8	0.08006245
50	0x3f54169f	0.8284702
51	0xbe84218d	-0.25806847
52	0x3f5535a5	0.8328498
53	0xbebcd42b	-0.3688062
54	0x3d973c54	0.073845536
55	0x3f537846	0.826054
56	0x3e384149	0.17993654
57	0x3d72bec0	0.059263945
58	0x3edd0c6d	0.43173543
59	0x3f9f7161	1.2456475
60	0x3f55bb19	0.83488613
61	0x3f3e7a0f	0.74404997
62	0xbd56d417	-0.05244836
63	0xbf30b9fd	-0.69033796

l2.bias f4 [8]
0	0x3f1f42e8	0.62211466
1	0xbe4e9cbf	-0.20176981
2	0x3f9961de	1.1982992
3	0xbe8125a3	-0.25224027
4	0x3ee717ca	0.45135337
5	0x3de802bc	0.113286465
6	0x3dfb05b4	0.12256947
7	0x3dcc8f99	0.099883266

l3.weight f4 [7, 8]
0	0x3f68ace7	0.9088883
1	0xbe9ebe14	-0.31004393
2	0xbfc40908	-1.5315256
3	0xbfa3460b	-1.275575
4	0xbf817d5a	-1.0116379
5	0xbfac5e85	-1.3466345
6	0xbfa7956b	-1.3092474
7	0x3f41a546	0.7564281
8	0xbe9e3807	-0.3090212
9	0xbe818e36	-0.2530381
10	0xbf8f2b16	-1.1185024
11	0x3f1afb15	0.6053937
12	0xbf73b8c4	-0.95203805
13	0x3e60ddb6	0.21959576
14	0x3f069df2	0.52584755
15	0xbeea544e	-0.45767444
16	0xbfa5644c	-1.2921233
17	0xbe0a54c8	-0.13508904
18	0x3f89f11f	1.0776709
19	0xbfe6a803	-1.8020023
20	0x3f1d0ac2	0.6134454
21	0xbfeeb7b1	-1.8649808
22	0xbf894bf6	-1.0726306
23	0xbdd1b5aa	-0.10239728
24	0x3f178d68	0.59200144
25	0x3e946e1d	0.2899026
26	0x3e757b5f	0.23972844
27	0xbf5e96a5	-0.86948615
28	0xbda7d87f	-0.0819559
29	0xbf31ee42	-0.6950418
30	0xbf19ccb0	-0.60077953
31	0x3e5d6e6e	0.21624157
32	0xbfb59e9e	-1.4189031
33	0xbe205332	-0.15656736
34	0x3df81442	0.12113239
35	0x3eb21e33	0.34788665
36	0x3eaec6bf	0.34136006
37	0xbfa8e4f5	-1.3194872
38	0xbf93ab26	-1.1536605
39	0x3ebc2706	0.36748523
40	0xbf957b0b	-1.1678175
41	0x3e94c3c3	0.29055604
42	0xbf5d56d3	-0.8646061
43	0xbfa3d11a	-1.2798188
44	0x3edb4817	0.42828438
45	0x3ea6e917	0.32599708
46	0x3f48b32e	0.78398407
47	0x3eaa5439	0.33267382
48	0xbfaac6d8	-1.3341932
49	0x3e1e271e	0.1544461
50	0x3e12a43c	0.14320463
51	0x3f1cbbf0	0.6122427
52	0x3e498f90	0.19683671
53	0x3de1e9b4	0.110309035
54	0xbe22fb21	-0.1591611
55	0xbfb2f90e	-1.3982255

l3.bias f4 [7]
0	0x3e0b2276	0.13587365
1	0x3e364ce5	0.1780277
2	0x3d830fc1	0.06399489
3	0x3f28368f	0.6570825
4	0xbf4e093b	-0.80482835
5	0xbebeae30	-0.3724227
6	0xbd790aa8	-0.06080118
